…
cution":{"iopub.status.busy":"2023-04-30T11:27:48.507539Z","iopub.execute_input":"2023-04-30T11:27:48.507865Z","iopub.status.idle":"2023-04-30T11:27:48.518239Z","shell.execute_reply.started":"2023-04-30T11:27:48.507835Z","shell.execute_reply":"2023-04-30T11:27:48.517238Z"},"trusted":true},"execution_count":17,"outputs":[{"name":"stdout","text":"Model: \"sequential\"\n_________________________________________________________________\nLayer (type)                 Output Shape              Param #   \n=================================================================\nconv2d (Conv2D)              (None, 32, 32, 32)        320       \n_________________________________________________________________\nmax_pooling2d (MaxPooling2D) (None, 16, 16, 32)        0         \n_________________________________________________________________\nconv2d_1 (Conv2D)            (None, 16, 16, 32)        9248      \n_________________________________________________________________\nmax_pooling2d_1 (MaxPooling2 (None, 8, 8, 32)          0         \n_________________________________________________________________\ndropout (Dropout)            (None, 8, 8, 32)          0         \n_________________________________________________________________\nflatten (Flatten)            (None, 2048)              0         \n_________________________________________________________________\ndense (Dense)                (None, 20)                40980     \n_________________________________________________________________\ndropout_1 (Dropout)          (None, 20)                0         \n_________________________________________________________________\ndense_1 (Dense)              (None, 4)                 84        \n=================================================================\nTotal params: 50,632\nTrainable params: 50,632\nNon-trainable params: 0\n_________________________________________________________________\n","output_type":"stream"}]},{"cell_type":"markdown","source":"## Task 4: Image Augmentation","metadata":{}},{"cell_type":"code","source":"#url : https://keras.io/api/preprocessing/ima
…
